…
I1103 10:15:53.775794 30645 net.cpp:294] The NetState phase (0) differed from the phase (1) specified by a rule in layer mnist
I1103 10:15:53.775804 30645 net.cpp:294] The NetState phase (0) differed from the phase (1) specified by a rule in layer accuracy
I1103 10:15:53.775849 30645 net.cpp:51] Initializing net from parameters: 
name: "LeNet"
state {
  phase: TRAIN
  level: 0
  stage: ""
}
layer {
  name: "mnist"
  type: "Data"
  top: "data"
  top: "label"
  include {
    phase: TRAIN
  }
  transform_param {
    scale: 0.00390625
  }
  data_param {
    source: "mnist_train_lmdb"
    batch_size: 64
    backend: LMDB
  }
}
layer {
  name: "conv1"
  type: "Convolution"
  bottom: "data"
  top: "conv1"
  param {
    lr_mult: 1
  }
  param {
    lr_mult: 2
  }
  convolution_param {
    num_output: 20
    kernel_size: 5
    stride: 1
    weight_filler {
      type: "xavier"
    }
    bias_filler {
      type: "constant"
    }
  }
}
layer {
  name: "pool1"
  type: "Pooling"
  bottom: "conv1"
  top: "pool1"
  pooling_param {
    pool: MAX
    kernel_size: 2
    stride: 2
  }
}
layer {
  name: "conv2"
  type: "Convolution"
  bottom: "pool1"
  top: "conv2"
  param {
    lr_mult: 1
  }
  param {
    lr_mult: 2
  }
  convolution_param {
    num_output: 50
    kernel_size: 5
    stride: 1
    weight_filler {
      type: "xavier"
    }
    bias_filler {
      type: "constant"
    }
  }
}
layer {
  name: "pool2"
  type: "Pooling"
  bottom: "conv2"
  top: "pool2"
  pooling_param {
    pool: MAX
    kernel_size: 2
    stride: 2
  }
}
layer {
  name: "ip1"
  type: "InnerProduct"
  bottom: "pool2"
  top: "ip1"
  param {
    lr_mult: 1
  }
  param {
    lr_mult: 2
  }
  inner_product_param {
    num_output: 500
    weight_filler {
      type: "xavier"
    }
    bias_filler {
      type: "constant"
    }
  }
}
layer {
  name: "relu1"
  type: "ReLU"
  bottom: "ip1"
  top: "ip1"
}
layer {
  name: "ip2"
  type: "InnerProduct"
  bottom: "ip1"
  top: "ip2"
  param {
    lr_mult: 1
  }
  param {
    lr_mult: 2
  }
  inner_product_param {
    num_output: 10
    weight_filler {
      type: "xavier"
    }
    bias_filler {
      type: "constant"
    }
  }
}
layer {
  name: "loss"
  type: "SoftmaxWithLoss"
  bottom: "ip2"
  bottom: "label"
  top: "loss"
}
I1103 10:15:53.775887 30645 layer_factory.hpp:77] Creating layer mnist
I1103 10:15:53.775957 30645 db_lmdb.cpp:35] Opened lmdb mnist_train_lmdb
I1103 10:15:53.775974 30645 net.cpp:84] Creating Layer mnist
I1103 10:15:53.775979 30645 net.cpp:380] mnist -> data
I1103 10:15:53.775993 30645 net.cpp:380] mnist -> label
I1103 10:15:53.776398 30645 data_layer.cpp:45] output data size: 64,1,28,28
I1103 10:15:53.777503 30645 net.cpp:122] Setting up mnist
I1103 10:15:53.777516 30645 net.cpp:129] Top shape: 64 1 28 28 (50176)
I1103 10:15:53.777520 30645 net.cpp:129] Top shape: 64 (64)
I1103 10:15:53.777523 30645 net.cpp:137] Memory required for data: 200960
I1103 10:15:53.777528 30645 layer_factory.hpp:77] Creating layer conv1
I1103 10:15:53.777539 30645 net.cpp:84] Creating Layer conv1
I1103 10:15:53.777544 30645 net.cpp:406] conv1 <- data
I1103 10:15:53.777551 30645 net.cpp:380] conv1 -> conv1
I1103 10:15:54.091058 30645 net.cpp:122] Setting up conv1
I1103 10:15:54.091083 30645 net.cpp:129] Top shape: 64 20 24 24 (737280)
I1103 10:15:54.091085 30645 net.cpp:137] Memory required for data: 3150080
I1103 10:15:54.091102 30645 layer_factory.hpp:77] Creating layer pool1
I1103 10:15:54.091111 30645 net.cpp:84] Creating Layer pool1
I1103 10:15:54.091122 30645 net.cpp:406] pool1 <- conv1
I1103 10:15:54.091133 30645 net.cpp:380] pool1 -> pool1
I1103 10:15:54.091168 30645 net.cpp:122] Setting up pool1
I1103 10:15:54.091172 30645 net.cpp:129] Top shape: 64 20 12 12 (184320)
I1103 10:15:54.091176 30645 net.cpp:137] Memory required for data: 3887360
I1103 10:15:54.091177 30645 layer_factory.hpp:77] Creating layer conv2
I1103 10:15:54.091184 30645 net.cpp:84] Creating Layer conv2
I1103 10:15:54.091187 30645 net.cpp:406] conv2 <- pool1
I1103 10:15:54.091192 30645 net.cpp:380] conv2 -> conv2
I1103 10:15:54.092274 30645 net.cpp:122] Setting up conv2
I1103 10:15:54.092283 30645 net.cpp:129] Top shape: 64 50 8 8 (204800)
I1103 10:15:54.092286 30645 net.cpp:137] Memory required for data: 4706560
I1103 10:15:54.092293 30645 layer_factory.hpp:77] Creating layer pool2
I1103 10:15:54.092298 30645 net.cpp:84] Creating Layer pool2
I1103 10:15:54.092300 30645 net.cpp:406] pool2 <- conv2
I1103 10:15:54.092303 30645 net.cpp:380] pool2 -> pool2
I1103 10:15:54.092330 30645 net.cpp:122] Setting up pool2
I1103 10:15:54.092334 30645 net.cpp:129] Top shape: 64 50 4 4 (51200)
I1103 10:15:54.092336 30645 net.cpp:137] Memory required for data: 4911360
I1103 10:15:54.092339 30645 layer_factory.hpp:77] Creating layer ip1
I1103 10:15:54.092344 30645 net.cpp:84] Creating Layer ip1
I1103 10:15:54.092347 30645 net.cpp:406] ip1 <- pool2
I1103 10:15:54.092351 30645 net.cpp:380] ip1 -> ip1
I1103 10:15:54.094310 30645 net.cpp:122] Setting up ip1
I1103 10:15:54.094319 30645 net.cpp:129] Top shape: 64 500 (32000)
I1103 10:15:54.094321 30645 net.cpp:137] Memory required for data: 5039360
I1103 10:15:54.094327 30645 layer_factory.hpp:77] Creating layer relu1
I1103 10:15:54.094331 30645 net.cpp:84] Creating Layer relu1
I1103 10:15:54.094334 30645 net.cpp:406] relu1 <- ip1
I1103 10:15:54.094338 30645 net.cpp:367] relu1 -> ip1 (in-place)
I1103 10:15:54.094624 30645 net.cpp:122] Setting up relu1
I1103 10:15:54.094631 30645 net.cpp:129] Top shape: 64 500 (32000)
I1103 10:15:54.094635 30645 net.cpp:137] Memory required for data: 5167360
I1103 10:15:54.094637 30645 layer_factory.hpp:77] Creating layer ip2
I1103 10:15:54.094641 30645 net.cpp:84] Creating Layer ip2
I1103 10:15:54.094645 30645 net.cpp:406] ip2 <- ip1
I1103 10:15:54.094648 30645 net.cpp:380] ip2 -> ip2
I1103 10:15:54.095032 30645 net.cpp:122] Setting up ip2
I1103 10:15:54.095041 30645 net.cpp:129] Top shape: 64 10 (640)
I1103 10:15:54.095043 30645 net.cpp:137] Memory required for data: 5169920
I1103 10:15:54.095048 30645 layer_factory.hpp:77] Creating layer loss
I1103 10:15:54.095053 30645 net.cpp:84] Creating Layer loss
I1103 10:15:54.095055 30645 net.cpp:406] loss <- ip2
I1103 10:15:54.095058 30645 net.cpp:406] loss <- label
I1103 10:15:54.095064 30645 net.cpp:380] loss -> loss
I1103 10:15:54.095072 30645 layer_factory.hpp:77] Creating layer loss
…
I1103 10:15:54.095449 30645 solver.cpp:172] Creating test net (#0) specified by net file: lenet_train_test.prototxt
I1103 10:15:54.095465 30645 net.cpp:294] The NetState phase (1) differed from the phase (0) specified by a rule in layer mnist
I1103 10:15:54.095522 30645 net.cpp:51] Initializing net from parameters: 
name: "LeNet"
state {
  phase: TEST
}
layer {
  name: "mnist"
  type: "Data"
  top: "data"
  top: "label"
  include {
    phase: TEST
  }
  transform_param {
    scale: 0.00390625
  }
  data_param {
    source: "mnist_test_lmdb"
    batch_size: 100
    backend: LMDB
  }
}
layer {
  name: "conv1"
  type: "Convolution"
  bottom: "data"
  top: "conv1"
  param {
    lr_mult: 1
  }
  param {
    lr_mult: 2
  }
  convolution_param {
    num_output: 20
    kernel_size: 5
    stride: 1
    weight_filler {
      type: "xavier"
    }
    bias_filler {
      type: "constant"
    }
  }
}
layer {
  name: "pool1"
  type: "Pooling"
  bottom: "conv1"
  top: "pool1"
  pooling_param {
    pool: MAX
    kernel_size: 2
    stride: 2
  }
}
layer {
  name: "conv2"
  type: "Convolution"
  bottom: "pool1"
  top: "conv2"
  param {
    lr_mult: 1
  }
  param {
    lr_mult: 2
  }
  convolution_param {
    num_output: 50
    kernel_size: 5
    stride: 1
    weight_filler {
      type: "xavier"
    }
    bias_filler {
      type: "constant"
    }
  }
}
layer {
  name: "pool2"
  type: "Pooling"
  bottom: "conv2"
  top: "pool2"
  pooling_param {
    pool: MAX
    kernel_size: 2
    stride: 2
  }
}
layer {
  name: "ip1"
  type: "InnerProduct"
  bottom: "pool2"
  top: "ip1"
  param {
    lr_mult: 1
  }
  param {
    lr_mult: 2
  }
  inner_product_param {
    num_output: 500
    weight_filler {
      type: "xavier"
    }
    bias_filler {
      type: "constant"
    }
  }
}
layer {
  name: "relu1"
  type: "ReLU"
  bottom: "ip1"
  top: "ip1"
}
layer {
  name: "ip2"
  type: "InnerProduct"
  bottom: "ip1"
  top: "ip2"
  param {
    lr_mult: 1
  }
  param {
    lr_mult: 2
  }
  inner_product_param {
    num_output: 10
    weight_filler {
      type: "xavier"
    }
    bias_filler {
      type: "constant"
    }
  }
}
layer {
  name: "accuracy"
  type: "Accuracy"
  bottom: "ip2"
  bottom: "label"
  top: "accuracy"
  include {
    phase: TEST
  }
}
layer {
  name: "loss"
  type: "SoftmaxWithLoss"
  bottom: "ip2"
  bottom: "label"
  top: "loss"
}
I1103 10:15:54.095566 30645 layer_factory.hpp:77] Creating layer mnist
I1103 10:15:54.095599 30645 db_lmdb.cpp:35] Opened lmdb mnist_test_lmdb
I1103 10:15:54.095609 30645 net.cpp:84] Creating Layer mnist
I1103 10:15:54.095613 30645 net.cpp:380] mnist -> data
I1103 10:15:54.095619 30645 net.cpp:380] mnist -> label
I1103 10:15:54.095681 30645 data_layer.cpp:45] output data size: 100,1,28,28
I1103 10:15:54.097491 30645 net.cpp:122] Setting up mnist
I1103 10:15:54.097501 30645 net.cpp:129] Top shape: 100 1 28 28 (78400)
I1103 10:15:54.097504 30645 net.cpp:129] Top shape: 100 (100)
I1103 10:15:54.097507 30645 net.cpp:137] Memory required for data: 314000
I1103 10:15:54.097509 30645 layer_factory.hpp:77] Creating layer label_mnist_1_split
I1103 10:15:54.097515 30645 net.cpp:84] Creating Layer label_mnist_1_split
I1103 10:15:54.097518 30645 net.cpp:406] label_mnist_1_split <- label
I1103 10:15:54.097522 30645 net.cpp:380] label_mnist_1_split -> label_mnist_1_split_0
I1103 10:15:54.097527 30645 net.cpp:380] label_mnist_1_split -> label_mnist_1_split_1
I1103 10:15:54.097558 30645 net.cpp:122] Setting up label_mnist_1_split
I1103 10:15:54.097563 30645 net.cpp:129] Top shape: 100 (100)
I1103 10:15:54.097565 30645 net.cpp:129] Top shape: 100 (100)
I1103 10:15:54.097568 30645 net.cpp:137] Memory required for data: 314800
I1103 10:15:54.097570 30645 layer_factory.hpp:77] Creating layer conv1
I1103 10:15:54.097576 30645 net.cpp:84] Creating Layer conv1
I1103 10:15:54.097579 30645 net.cpp:406] conv1 <- data
I1103 10:15:54.097584 30645 net.cpp:380] conv1 -> conv1
I1103 10:15:54.098824 30645 net.cpp:122] Setting up conv1
I1103 10:15:54.098835 30645 net.cpp:129] Top shape: 100 20 24 24 (1152000)
I1103 10:15:54.098839 30645 net.cpp:137] Memory required for data: 4922800
I1103 10:15:54.098845 30645 layer_factory.hpp:77] Creating layer pool1
I1103 10:15:54.098850 30645 net.cpp:84] Creating Layer pool1
I1103 10:15:54.098858 30645 net.cpp:406] pool1 <- conv1
I1103 10:15:54.098867 30645 net.cpp:380] pool1 -> pool1
I1103 10:15:54.098896 30645 net.cpp:122] Setting up pool1
I1103 10:15:54.098901 30645 net.cpp:129] Top shape: 100 20 12 12 (288000)
I1103 10:15:54.098903 30645 net.cpp:137] Memory required for data: 6074800
I1103 10:15:54.098906 30645 layer_factory.hpp:77] Creating layer conv2
I1103 10:15:54.098912 30645 net.cpp:84] Creating Layer conv2
I1103 10:15:54.098914 30645 net.cpp:406] conv2 <- pool1
I1103 10:15:54.098919 30645 net.cpp:380] conv2 -> conv2
I1103 10:15:54.100163 30645 net.cpp:122] Setting up conv2
I1103 10:15:54.100174 30645 net.cpp:129] Top shape: 100 50 8 8 (320000)
I1103 10:15:54.100178 30645 net.cpp:137] Memory required for data: 7354800
I1103 10:15:54.100183 30645 layer_factory.hpp:77] Creating layer pool2
I1103 10:15:54.100188 30645 net.cpp:84] Creating Layer pool2
I1103 10:15:54.100190 30645 net.cpp:406] pool2 <- conv2
I1103 10:15:54.100194 30645 net.cpp:380] pool2 -> pool2
I1103 10:15:54.100313 30645 net.cpp:122] Setting up pool2
I1103 10:15:54.100318 30645 net.cpp:129] Top shape: 100 50 4 4 (80000)
I1103 10:15:54.100320 30645 net.cpp:137] Memory required for data: 7674800
I1103 10:15:54.100324 30645 layer_factory.hpp:77] Creating layer ip1
I1103 10:15:54.100330 30645 net.cpp:84] Creating Layer ip1
I1103 10:15:54.100333 30645 net.cpp:406] ip1 <- pool2
I1103 10:15:54.100338 30645 net.cpp:380] ip1 -> ip1
I1103 10:15:54.102418 30645 net.cpp:122] Setting up ip1
I1103 10:15:54.102428 30645 net.cpp:129] Top shape: 100 500 (50000)
I1103 10:15:54.102432 30645 net.cpp:137] Memory required for data: 7874800
I1103 10:15:54.102437 30645 layer_factory.hpp:77] Creating layer relu1
I1103 10:15:54.102442 30645 net.cpp:84] Creating Layer relu1
I1103 10:15:54.102444 30645 net.cpp:406] relu1 <- ip1
I1103 10:15:54.102448 30645 net.cpp:367] relu1 -> ip1 (in-place)
I1103 10:15:54.102744 30645 net.cpp:122] Setting up relu1
I1103 10:15:54.102752 30645 net.cpp:129] Top shape: 100 500 (50000)
I1103 10:15:54.102756 30645 net.cpp:137] Memory required for data: 8074800
I1103 10:15:54.102758 30645 layer_factory.hpp:77] Creating layer ip2
I1103 10:15:54.102764 30645 net.cpp:84] Creating Layer ip2
I1103 10:15:54.102767 30645 net.cpp:406] ip2 <- ip1
I1103 10:15:54.102773 30645 net.cpp:380] ip2 -> ip2
I1103 10:15:54.102869 30645 net.cpp:122] Setting up ip2
I1103 10:15:54.102874 30645 net.cpp:129] Top shape: 100 10 (1000)
I1103 10:15:54.102875 30645 net.cpp:137] Memory required for data: 8078800
I1103 10:15:54.102880 30645 layer_factory.hpp:77] Creating layer ip2_ip2_0_split
I1103 10:15:54.102883 30645 net.cpp:84] Creating Layer ip2_ip2_0_split
I1103 10:15:54.102885 30645 net.cpp:406] ip2_ip2_0_split <- ip2
I1103 10:15:54.102890 30645 net.cpp:380] ip2_ip2_0_split -> ip2_ip2_0_split_0
I1103 10:15:54.102895 30645 net.cpp:380] ip2_ip2_0_split -> ip2_ip2_0_split_1
I1103 10:15:54.102918 30645 net.cpp:122] Setting up ip2_ip2_0_split
I1103 10:15:54.102923 30645 net.cpp:129] Top shape: 100 10 (1000)
I1103 10:15:54.102926 30645 net.cpp:129] Top shape: 100 10 (1000)
I1103 10:15:54.102928 30645 net.cpp:137] Memory required for data: 8086800
I1103 10:15:54.102931 30645 layer_factory.hpp:77] Creating layer accuracy
I1103 10:15:54.102936 30645 net.cpp:84] Creating Layer accuracy
I1103 10:15:54.102937 30645 net.cpp:406] accuracy <- ip2_ip2_0_split_0
I1103 10:15:54.102941 30645 net.cpp:406] accuracy <- label_mnist_1_split_0
I1103 10:15:54.102944 30645 net.cpp:380] accuracy -> accuracy
…
