…
I1103 09:40:41.704975 28430 net.cpp:294] The NetState phase (0) differed from the phase (1) specified by a rule in layer mnist
I1103 09:40:41.704984 28430 net.cpp:294] The NetState phase (0) differed from the phase (1) specified by a rule in layer accuracy
I1103 09:40:41.705026 28430 net.cpp:51] Initializing net from parameters: 
name: "LeNet"
state {
  phase: TRAIN
  level: 0
  stage: ""
}
layer {
  name: "mnist"
  type: "Data"
  top: "data"
  top: "label"
  include {
    phase: TRAIN
  }
  transform_param {
    scale: 0.00390625
  }
  data_param {
    source: "mnist_train_lmdb"
    batch_size: 64
    backend: LMDB
  }
}
layer {
  name: "conv1"
  type: "Convolution"
  bottom: "data"
  top: "conv1"
  param {
    lr_mult: 1
  }
  param {
    lr_mult: 2
  }
  convolution_param {
    num_output: 20
    kernel_size: 5
    stride: 1
    weight_filler {
      type: "xavier"
    }
    bias_filler {
      type: "constant"
    }
  }
}
layer {
  name: "pool1"
  type: "Pooling"
  bottom: "conv1"
  top: "pool1"
  pooling_param {
    pool: MAX
    kernel_size: 2
    stride: 2
  }
}
layer {
  name: "conv2"
  type: "Convolution"
  bottom: "pool1"
  top: "conv2"
  param {
    lr_mult: 1
  }
  param {
    lr_mult: 2
  }
  convolution_param {
    num_output: 50
    kernel_size: 5
    stride: 1
    weight_filler {
      type: "xavier"
    }
    bias_filler {
      type: "constant"
    }
  }
}
layer {
  name: "pool2"
  type: "Pooling"
  bottom: "conv2"
  top: "pool2"
  pooling_param {
    pool: MAX
    kernel_size: 2
    stride: 2
  }
}
layer {
  name: "ip1"
  type: "InnerProduct"
  bottom: "pool2"
  top: "ip1"
  param {
    lr_mult: 1
  }
  param {
    lr_mult: 2
  }
  inner_product_param {
    num_output: 500
    weight_filler {
      type: "xavier"
    }
    bias_filler {
      type: "constant"
    }
  }
}
layer {
  name: "relu1"
  type: "ReLU"
  bottom: "ip1"
  top: "ip1"
}
layer {
  name: "ip2"
  type: "InnerProduct"
  bottom: "ip1"
  top: "ip2"
  param {
    lr_mult: 1
  }
  param {
    lr_mult: 2
  }
  inner_product_param {
    num_output: 10
    weight_filler {
      type: "xavier"
    }
    bias_filler {
      type: "constant"
    }
  }
}
layer {
  name: "loss"
  type: "SoftmaxWithLoss"
  bottom: "ip2"
  bottom: "label"
  top: "loss"
}
I1103 09:40:41.705060 28430 layer_factory.hpp:77] Creating layer mnist
I1103 09:40:41.705129 28430 db_lmdb.cpp:35] Opened lmdb mnist_train_lmdb
I1103 09:40:41.705144 28430 net.cpp:84] Creating Layer mnist
I1103 09:40:41.705152 28430 net.cpp:380] mnist -> data
I1103 09:40:41.705166 28430 net.cpp:380] mnist -> label
I1103 09:40:41.705188 28430 data_layer.cpp:45] output data size: 64,1,28,28
I1103 09:40:41.705878 28430 net.cpp:122] Setting up mnist
I1103 09:40:41.705888 28430 net.cpp:129] Top shape: 64 1 28 28 (50176)
I1103 09:40:41.705890 28430 net.cpp:129] Top shape: 64 (64)
I1103 09:40:41.705893 28430 net.cpp:137] Memory required for data: 200960
I1103 09:40:41.705896 28430 layer_factory.hpp:77] Creating layer conv1
I1103 09:40:41.705916 28430 net.cpp:84] Creating Layer conv1
I1103 09:40:41.705921 28430 net.cpp:406] conv1 <- data
I1103 09:40:41.705929 28430 net.cpp:380] conv1 -> conv1
I1103 09:40:42.008930 28430 net.cpp:122] Setting up conv1
I1103 09:40:42.008954 28430 net.cpp:129] Top shape: 64 20 24 24 (737280)
I1103 09:40:42.008957 28430 net.cpp:137] Memory required for data: 3150080
I1103 09:40:42.008973 28430 layer_factory.hpp:77] Creating layer pool1
I1103 09:40:42.008981 28430 net.cpp:84] Creating Layer pool1
I1103 09:40:42.008985 28430 net.cpp:406] pool1 <- conv1
I1103 09:40:42.008990 28430 net.cpp:380] pool1 -> pool1
I1103 09:40:42.009008 28430 net.cpp:122] Setting up pool1
I1103 09:40:42.009017 28430 net.cpp:129] Top shape: 64 20 12 12 (184320)
I1103 09:40:42.009021 28430 net.cpp:137] Memory required for data: 3887360
I1103 09:40:42.009022 28430 layer_factory.hpp:77] Creating layer conv2
I1103 09:40:42.009029 28430 net.cpp:84] Creating Layer conv2
I1103 09:40:42.009032 28430 net.cpp:406] conv2 <- pool1
I1103 09:40:42.009037 28430 net.cpp:380] conv2 -> conv2
I1103 09:40:42.009948 28430 net.cpp:122] Setting up conv2
I1103 09:40:42.009956 28430 net.cpp:129] Top shape: 64 50 8 8 (204800)
I1103 09:40:42.009959 28430 net.cpp:137] Memory required for data: 4706560
I1103 09:40:42.009965 28430 layer_factory.hpp:77] Creating layer pool2
I1103 09:40:42.009970 28430 net.cpp:84] Creating Layer pool2
I1103 09:40:42.009974 28430 net.cpp:406] pool2 <- conv2
I1103 09:40:42.009976 28430 net.cpp:380] pool2 -> pool2
I1103 09:40:42.009982 28430 net.cpp:122] Setting up pool2
I1103 09:40:42.009986 28430 net.cpp:129] Top shape: 64 50 4 4 (51200)
I1103 09:40:42.009989 28430 net.cpp:137] Memory required for data: 4911360
I1103 09:40:42.009991 28430 layer_factory.hpp:77] Creating layer ip1
I1103 09:40:42.009996 28430 net.cpp:84] Creating Layer ip1
I1103 09:40:42.009999 28430 net.cpp:406] ip1 <- pool2
I1103 09:40:42.010002 28430 net.cpp:380] ip1 -> ip1
I1103 09:40:42.011829 28430 net.cpp:122] Setting up ip1
I1103 09:40:42.011835 28430 net.cpp:129] Top shape: 64 500 (32000)
I1103 09:40:42.011837 28430 net.cpp:137] Memory required for data: 5039360
I1103 09:40:42.011843 28430 layer_factory.hpp:77] Creating layer relu1
I1103 09:40:42.011847 28430 net.cpp:84] Creating Layer relu1
I1103 09:40:42.011849 28430 net.cpp:406] relu1 <- ip1
I1103 09:40:42.011853 28430 net.cpp:367] relu1 -> ip1 (in-place)
I1103 09:40:42.012132 28430 net.cpp:122] Setting up relu1
I1103 09:40:42.012140 28430 net.cpp:129] Top shape: 64 500 (32000)
I1103 09:40:42.012142 28430 net.cpp:137] Memory required for data: 5167360
I1103 09:40:42.012145 28430 layer_factory.hpp:77] Creating layer ip2
I1103 09:40:42.012151 28430 net.cpp:84] Creating Layer ip2
I1103 09:40:42.012152 28430 net.cpp:406] ip2 <- ip1
I1103 09:40:42.012156 28430 net.cpp:380] ip2 -> ip2
I1103 09:40:42.012186 28430 net.cpp:122] Setting up ip2
I1103 09:40:42.012188 28430 net.cpp:129] Top shape: 64 10 (640)
I1103 09:40:42.012190 28430 net.cpp:137] Memory required for data: 5169920
I1103 09:40:42.012194 28430 layer_factory.hpp:77] Creating layer loss
I1103 09:40:42.012199 28430 net.cpp:84] Creating Layer loss
I1103 09:40:42.012202 28430 net.cpp:406] loss <- ip2
I1103 09:40:42.012204 28430 net.cpp:406] loss <- label
I1103 09:40:42.012208 28430 net.cpp:380] loss -> loss
I1103 09:40:42.012217 28430 layer_factory.hpp:77] Creating layer loss
…
I1103 09:40:42.012540 28430 solver.cpp:172] Creating test net (#0) specified by net file: lenet_train_test.prototxt
I1103 09:40:42.012555 28430 net.cpp:294] The NetState phase (1) differed from the phase (0) specified by a rule in layer mnist
I1103 09:40:42.012610 28430 net.cpp:51] Initializing net from parameters: 
name: "LeNet"
state {
  phase: TEST
}
layer {
  name: "mnist"
  type: "Data"
  top: "data"
  top: "label"
  include {
    phase: TEST
  }
  transform_param {
    scale: 0.00390625
  }
  data_param {
    source: "mnist_test_lmdb"
    batch_size: 100
    backend: LMDB
  }
}
layer {
  name: "conv1"
  type: "Convolution"
  bottom: "data"
  top: "conv1"
  param {
    lr_mult: 1
  }
  param {
    lr_mult: 2
  }
  convolution_param {
    num_output: 20
    kernel_size: 5
    stride: 1
    weight_filler {
      type: "xavier"
    }
    bias_filler {
      type: "constant"
    }
  }
}
layer {
  name: "pool1"
  type: "Pooling"
  bottom: "conv1"
  top: "pool1"
  pooling_param {
    pool: MAX
    kernel_size: 2
    stride: 2
  }
}
layer {
  name: "conv2"
  type: "Convolution"
  bottom: "pool1"
  top: "conv2"
  param {
    lr_mult: 1
  }
  param {
    lr_mult: 2
  }
  convolution_param {
    num_output: 50
    kernel_size: 5
    stride: 1
    weight_filler {
      type: "xavier"
    }
    bias_filler {
      type: "constant"
    }
  }
}
layer {
  name: "pool2"
  type: "Pooling"
  bottom: "conv2"
  top: "pool2"
  pooling_param {
    pool: MAX
    kernel_size: 2
    stride: 2
  }
}
layer {
  name: "ip1"
  type: "InnerProduct"
  bottom: "pool2"
  top: "ip1"
  param {
    lr_mult: 1
  }
  param {
    lr_mult: 2
  }
  inner_product_param {
    num_output: 500
    weight_filler {
      type: "xavier"
    }
    bias_filler {
      type: "constant"
    }
  }
}
layer {
  name: "relu1"
  type: "ReLU"
  bottom: "ip1"
  top: "ip1"
}
layer {
  name: "ip2"
  type: "InnerProduct"
  bottom: "ip1"
  top: "ip2"
  param {
    lr_mult: 1
  }
  param {
    lr_mult: 2
  }
  inner_product_param {
    num_output: 10
    weight_filler {
      type: "xavier"
    }
    bias_filler {
      type: "constant"
    }
  }
}
layer {
  name: "accuracy"
  type: "Accuracy"
  bottom: "ip2"
  bottom: "label"
  top: "accuracy"
  include {
    phase: TEST
  }
}
layer {
  name: "loss"
  type: "SoftmaxWithLoss"
  bottom: "ip2"
  bottom: "label"
  top: "loss"
}
I1103 09:40:42.012658 28430 layer_factory.hpp:77] Creating layer mnist
I1103 09:40:42.012694 28430 db_lmdb.cpp:35] Opened lmdb mnist_test_lmdb
I1103 09:40:42.012704 28430 net.cpp:84] Creating Layer mnist
I1103 09:40:42.012708 28430 net.cpp:380] mnist -> data
I1103 09:40:42.012713 28430 net.cpp:380] mnist -> label
I1103 09:40:42.012725 28430 data_layer.cpp:45] output data size: 100,1,28,28
I1103 09:40:42.013031 28430 net.cpp:122] Setting up mnist
I1103 09:40:42.013037 28430 net.cpp:129] Top shape: 100 1 28 28 (78400)
I1103 09:40:42.013041 28430 net.cpp:129] Top shape: 100 (100)
I1103 09:40:42.013043 28430 net.cpp:137] Memory required for data: 314000
I1103 09:40:42.013046 28430 layer_factory.hpp:77] Creating layer label_mnist_1_split
I1103 09:40:42.013051 28430 net.cpp:84] Creating Layer label_mnist_1_split
I1103 09:40:42.013052 28430 net.cpp:406] label_mnist_1_split <- label
I1103 09:40:42.013057 28430 net.cpp:380] label_mnist_1_split -> label_mnist_1_split_0
I1103 09:40:42.013062 28430 net.cpp:380] label_mnist_1_split -> label_mnist_1_split_1
I1103 09:40:42.013067 28430 net.cpp:122] Setting up label_mnist_1_split
I1103 09:40:42.013070 28430 net.cpp:129] Top shape: 100 (100)
I1103 09:40:42.013073 28430 net.cpp:129] Top shape: 100 (100)
I1103 09:40:42.013075 28430 net.cpp:137] Memory required for data: 314800
I1103 09:40:42.013077 28430 layer_factory.hpp:77] Creating layer conv1
I1103 09:40:42.013084 28430 net.cpp:84] Creating Layer conv1
I1103 09:40:42.013087 28430 net.cpp:406] conv1 <- data
I1103 09:40:42.013092 28430 net.cpp:380] conv1 -> conv1
I1103 09:40:42.013962 28430 net.cpp:122] Setting up conv1
I1103 09:40:42.013972 28430 net.cpp:129] Top shape: 100 20 24 24 (1152000)
I1103 09:40:42.013975 28430 net.cpp:137] Memory required for data: 4922800
I1103 09:40:42.013981 28430 layer_factory.hpp:77] Creating layer pool1
I1103 09:40:42.013986 28430 net.cpp:84] Creating Layer pool1
I1103 09:40:42.013989 28430 net.cpp:406] pool1 <- conv1
I1103 09:40:42.013996 28430 net.cpp:380] pool1 -> pool1
I1103 09:40:42.014006 28430 net.cpp:122] Setting up pool1
I1103 09:40:42.014012 28430 net.cpp:129] Top shape: 100 20 12 12 (288000)
I1103 09:40:42.014014 28430 net.cpp:137] Memory required for data: 6074800
I1103 09:40:42.014017 28430 layer_factory.hpp:77] Creating layer conv2
I1103 09:40:42.014025 28430 net.cpp:84] Creating Layer conv2
I1103 09:40:42.014029 28430 net.cpp:406] conv2 <- pool1
I1103 09:40:42.014034 28430 net.cpp:380] conv2 -> conv2
I1103 09:40:42.015041 28430 net.cpp:122] Setting up conv2
I1103 09:40:42.015051 28430 net.cpp:129] Top shape: 100 50 8 8 (320000)
I1103 09:40:42.015054 28430 net.cpp:137] Memory required for data: 7354800
I1103 09:40:42.015060 28430 layer_factory.hpp:77] Creating layer pool2
I1103 09:40:42.015065 28430 net.cpp:84] Creating Layer pool2
I1103 09:40:42.015067 28430 net.cpp:406] pool2 <- conv2
I1103 09:40:42.015072 28430 net.cpp:380] pool2 -> pool2
I1103 09:40:42.015080 28430 net.cpp:122] Setting up pool2
I1103 09:40:42.015084 28430 net.cpp:129] Top shape: 100 50 4 4 (80000)
I1103 09:40:42.015087 28430 net.cpp:137] Memory required for data: 7674800
I1103 09:40:42.015089 28430 layer_factory.hpp:77] Creating layer ip1
I1103 09:40:42.015095 28430 net.cpp:84] Creating Layer ip1
I1103 09:40:42.015099 28430 net.cpp:406] ip1 <- pool2
I1103 09:40:42.015102 28430 net.cpp:380] ip1 -> ip1
I1103 09:40:42.016921 28430 net.cpp:122] Setting up ip1
I1103 09:40:42.016927 28430 net.cpp:129] Top shape: 100 500 (50000)
I1103 09:40:42.016929 28430 net.cpp:137] Memory required for data: 7874800
I1103 09:40:42.016934 28430 layer_factory.hpp:77] Creating layer relu1
I1103 09:40:42.016940 28430 net.cpp:84] Creating Layer relu1
I1103 09:40:42.016942 28430 net.cpp:406] relu1 <- ip1
I1103 09:40:42.016947 28430 net.cpp:367] relu1 -> ip1 (in-place)
I1103 09:40:42.017231 28430 net.cpp:122] Setting up relu1
I1103 09:40:42.017238 28430 net.cpp:129] Top shape: 100 500 (50000)
I1103 09:40:42.017241 28430 net.cpp:137] Memory required for data: 8074800
I1103 09:40:42.017244 28430 layer_factory.hpp:77] Creating layer ip2
I1103 09:40:42.017251 28430 net.cpp:84] Creating Layer ip2
I1103 09:40:42.017252 28430 net.cpp:406] ip2 <- ip1
I1103 09:40:42.017257 28430 net.cpp:380] ip2 -> ip2
I1103 09:40:42.017292 28430 net.cpp:122] Setting up ip2
I1103 09:40:42.017295 28430 net.cpp:129] Top shape: 100 10 (1000)
I1103 09:40:42.017297 28430 net.cpp:137] Memory required for data: 8078800
I1103 09:40:42.017302 28430 layer_factory.hpp:77] Creating layer ip2_ip2_0_split
I1103 09:40:42.017305 28430 net.cpp:84] Creating Layer ip2_ip2_0_split
I1103 09:40:42.017309 28430 net.cpp:406] ip2_ip2_0_split <- ip2
I1103 09:40:42.017313 28430 net.cpp:380] ip2_ip2_0_split -> ip2_ip2_0_split_0
I1103 09:40:42.017316 28430 net.cpp:380] ip2_ip2_0_split -> ip2_ip2_0_split_1
I1103 09:40:42.017321 28430 net.cpp:122] Setting up ip2_ip2_0_split
I1103 09:40:42.017324 28430 net.cpp:129] Top shape: 100 10 (1000)
I1103 09:40:42.017328 28430 net.cpp:129] Top shape: 100 10 (1000)
I1103 09:40:42.017329 28430 net.cpp:137] Memory required for data: 8086800
I1103 09:40:42.017333 28430 layer_factory.hpp:77] Creating layer accuracy
I1103 09:40:42.017336 28430 net.cpp:84] Creating Layer accuracy
I1103 09:40:42.017339 28430 net.cpp:406] accuracy <- ip2_ip2_0_split_0
I1103 09:40:42.017343 28430 net.cpp:406] accuracy <- label_mnist_1_split_0
I1103 09:40:42.017345 28430 net.cpp:380] accuracy -> accuracy
…
